data.pth (torch, 8383 bytes, 6 tensors)

l1.weight f4 [8, 110]
0	0x3f4eca06	0.80777013
1	0xbdf9127b	-0.12161728
2	0x3f83a2ba	1.0284035
3	0xbf31f04a	-0.69507277
4	0x3e9c2e33	0.30503997
5	0x403d8cda	2.961722
6	0xbfc6275d	-1.5480763
7	0x3f37ddbc	0.71822715
8	0xbef2a7ca	-0.47393638
9	0x3f028483	0.50983447
10	0x3f4fe59c	0.8120973
11	0xbf85e7ea	-1.04614
12	0xbf2401bb	-0.6406514
13	0x3fd80451	1.6876317
14	0x3f4b1722	0.7933217
15	0x405ceeda	3.4520783
16	0x3ee3395e	0.44379705
17	0x3f1c89c5	0.6114772
18	0x3f7395c1	0.9515038
19	0xbefb2a95	-0.49055925
20	0xbdb63bce	-0.088981256
21	0x3fa9b880	1.325943
22	0xbf412f33	-0.75462645
23	0x3f975cd6	1.1825206
24	0xbf8372c1	-1.0269395
25	0x3f9f7635	1.2457949
26	0xbf881c3e	-1.0633619
27	0x3f74d8b1	0.95643145
28	0xbed0795e	-0.40717596
29	0x3dc7d1e1	0.09756828
30	0xbe949f53	-0.29027805
31	0x3ddf8a62	0.10915066
32	0x3ec4f3b2	0.38467175
33	0xbf12c858	-0.5733695
34	0xbe827ed3	-0.25487384
35	0xbfc515dc	-1.5397296
36	0xbed5d77e	-0.4176597
37	0xbe9f3494	-0.310948
38	0x3dcc2f12	0.099699154
39	0x3e8c3654	0.273852
40	0x4039da68	2.9039555
41	0xbf99d21c	-1.2017245
42	0x3eb0801d	0.34472743
43	0x3e9e1640	0.3087635
44	0xbf46e35d	-0.7769068
45	0x3efad01b	0.48986897
46	0xbf4704e6	-0.7774185
47	0xbf5e9b94	-0.86956143
48	0x3eda99c7	0.42695448
49	0xbf4729cb	-0.77798146
50	0x3f16bf82	0.5888597
51	0xbf118a9e	-0.5685214
52	0xbea23674	-0.3168217
53	0x3f0a2e26	0.53976667
54	0x3f83ee8e	1.0307176
55	0x3d4992b1	0.04921216
56	0x3d2bdfe5	0.04196157
57	0x3f4c6166	0.7983612
58	0x3fba1d2b	1.4540151
59	0xbf3c9f30	-0.736804
60	0x3f0cb550	0.5496416
61	0xbf3e2153	-0.742696
62	0x3f159bec	0.5844104
63	0xbf186e0f	-0.59542936
64	0x3e893884	0.2680093
65	0xbf31f647	-0.69516414
66	0x3d33133b	0.04371951
67	0x40063c6f	2.0974386
68	0xbd93c697	-0.072156124
69	0x3f868c7c	1.0511622
70	0x3d9d1da1	0.07671667
71	0xbdf8a4aa	-0.12140782
72	0xbf0b528a	-0.5442282
73	0x402a34d6	2.6594748
74	0xbf6b0a3a	-0.9181248
75	0xbf8ee9fd	-1.1165158
76	0x3f18435d	0.5947779
77	0xbf87bcab	-1.0604452
78	0x3f8e4e82	1.1117709
79	0x3fef372e	1.8688715
80	0x407de5cf	3.9671514
81	0x3f427635	0.7596162
82	0xbf617f82	-0.88085186
83	0xbd946a22	-0.07246806
84	0x3f4bb80f	0.79577726
85	0x4024b1f1	2.5733607
86	0xbf222bfe	-0.63348377
87	0x3f82ee6e	1.0229013
88	0x3f6e3ebd	0.9306448
89	0x3e5191e9	0.20465817
90	0x3fa37d9e	1.277271
91	0x3f585be3	0.8451521
92	0xbfbf6892	-1.4953787
93	0xbf13e7bf	-0.5777549
94	0xbf474cd1	-0.7785159
95	0x3ee48dd8	0.44639468
96	0xbf149f64	-0.5805571
97	0xbec1cf0f	-0.37853286
98	0x3f4fbc80	0.81147003
99	0xbf0b5fcc	-0.5444305
100	0xbf9ddefb	-1.2333673
101	0x3f13f7ab	0.57799786
102	0x3fc71212	1.555239
103	0xbebc4814	-0.3677374
104	0x3f8b509b	1.0883974
105	0x3f653905	0.8954013
106	0xbf41cf23	-0.7570669
107	0x3f159210	0.58426
108	0xbe247957	-0.16061912
109	0xbf16668e	-0.58750236
110	0x3fbecbc2	1.4905932
111	0xbd69b2c2	-0.057055242
112	0x3fb869d5	1.4407297
113	0x3e4489f3	0.19193248
114	0xbcbfa314	-0.023393191
115	0x40032937	2.0493906
116	0x3f142aa7	0.5787758
117	0x3faf30a2	1.3686717
118	0x3d176022	0.036956914
119	0x400acfc9	2.1689322
120	0x401839b5	2.3785222
121	0xbdd172df	-0.10226988
122	0x3fc55851	1.5417577
123	0x40106800	2.2563477
124	0x3ec6a309	0.3879626
125	0x40226592	2.5374494
126	0x3f8569e3	1.0422939
127	0x3f6248d0	0.88392353
128	0x3ee09903	0.4386674
129	0xbea9dcf9	-0.331764
130	0x3fd40f57	1.6567181
131	0x3f8bc2d2	1.091883
132	0xbdd8c47c	-0.105843514
133	0x3f9cae68	1.2240725
134	0x3f5d3861	0.8641415
135	0x401023b0	2.2521782
136	0x3e8780d4	0.26465476
137	0x3f34df5d	0.70653325
138	0xbf806528	-1.003087
139	0xbdbf0141	-0.09326411
140	0x400f99ee	2.2437701
141	0x3e97d9f8	0.29658484
142	0xbe3ac0a8	-0.18237555
143	0xbf945fb6	-1.1591709
144	0xbf6f98c0	-0.93592453
145	0x3fa52a22	1.2903483
146	0x4023c9aa	2.5591836
147	0xbf625bc5	-0.8842128
148	0x3f3d9a5e	0.7406367
149	0x3fc26bda	1.5189164
150	0x4002a04e	2.0410342
151	0xbfbba117	-1.4658536
152	0x3fe13e63	1.7597164
153	0xbd7e3732	-0.062064357
154	0x3fd195e1	1.6373864
155	0xbf1229e7	-0.5709519
156	0xbf36846e	-0.7129582
157	0xbe03d2d0	-0.12873387
158	0x3fa6d809	1.3034679
159	0xbe810f80	-0.25207138
160	0x3f936136	1.1514041
161	0x3e437a31	0.19089581
162	0x3fe89a06	1.8172004
163	0x3ecec8fb	0.4038771
164	0x3feace93	1.8344291
165	0x3ea27857	0.31732437
166	0x3fb6c0a7	1.4277543
167	0x3f6c795f	0.923727
168	0x3fd687ca	1.676019
169	0xbd8d6bd1	-0.0690533
170	0x3eb46231	0.35231164
171	0xbeb71d0d	-0.3576435
172	0x3f866a23	1.050114
173	0x3f2e6ca9	0.6813455
174	0x3fe6ab5a	1.8021042
175	0xbfb3ca1c	-1.4046054
176	0x3dc95f99	0.09832687
177	0x40347845	2.8198407
178	0x3f4b4487	0.7940144
179	0x3f9e692c	1.2375846
180	0x3dfc92c4	0.12332681
181	0xbecd0207	-0.4004061
182	0xbf6538c9	-0.8953977
183	0x3fe1d917	1.7644376
184	0x3d9aaf99	0.07553024
185	0x3fa8ce41	1.3187944
186	0x3f07f260	0.5310421
187	0xbf8aeb79	-1.085311
188	0x3fde9907	1.739045
189	0x3feda736	1.8566654
190	0x4050276d	3.2524064
191	0xbe5ff5e5	-0.21871145
192	0x3e376ceb	0.17912643
193	0x3f446ddc	0.7673013
194	0x3fcecb23	1.6155742
195	0x400ef055	2.2334187
196	0x3f1e59da	0.6185585
197	0x400e0024	2.2187586
198	0x3f4ee5f7	0.8081965
199	0x3face528	1.3507433
200	0x3e94ccbc	0.2906245
201	0xbf3fded0	-0.7494936
202	0x400ff8c8	2.2495594
203	0x403b4ed3	2.926686
204	0x3fcebde7	1.6151704
205	0xbf948178	-1.1602011
206	0x4002f47a	2.0461717
207	0x3fbceec8	1.476037
208	0xbf2cac2c	-0.67450213
209	0x3f8a1824	1.0788617
210	0x3e9814e4	0.29703438
211	0x3f11d073	0.56958693
212	0x4033de76	2.810453
213	0x3cabb967	0.02096243
214	0xbf53be81	-0.8271256
215	0x3fcae2d2	1.585047
216	0x3d71a57d	0.058995713
217	0x3f8ca6fe	1.0988462
218	0x3edbbbf9	0.4291685
219	0xbf42ee68	-0.7614503
220	0xbf57cda8	-0.8429818
221	0x3e3855d3	0.1800149
222	0x3f15c682	0.58506024
223	0x3e87ddf4	0.26536524
224	0x3fed5fb6	1.8544834
225	0x3fca155c	1.5787768
226	0x3fd2ba0a	1.6463025
227	0xbf05bad9	-0.5223823
228	0x3f7e3764	0.9930327
229	0x3f0608e8	0.5235734
230	0x3f526086	0.82178533
231	0x3f46f630	0.777194
232	0x3f387544	0.72053933
233	0x3d0169f6	0.031595193
234	0x3f3e90ce	0.74439704
235	0xbee38673	-0.44438514
236	0x3fbf0a39	1.4924995
237	0xbb1d7615	-0.0024026681
238	0x3f4ecf2c	0.8078487
239	0x3f6859d6	0.9076208
240	0x3e9e0dab	0.30869803
241	0x3f3ccac0	0.7374687
242	0x3fedb6c7	1.8571404
243	0xbeb90745	-0.3613836
244	0x40216915	2.5220387
245	0xbfa476e9	-1.2848788
246	0x3f7e7aa9	0.99405915
247	0xbf90a9cc	-1.1301818
248	0x3f5fe50e	0.87458885
249	0x3e75cf72	0.24004915
250	0xbf2f95c4	-0.685879
251	0x3f980460	1.1876335
252	0x3fef7e40	1.8710403
253	0x3f7f53ab	0.9973704
254	0x3f5d1ac3	0.8636896
255	0x3f984a73	1.189772

l1.bias f4 [8]
0	0x3f40d8ce	0.7533082
1	0x3f2dcd82	0.67891705
2	0x3ece9eb4	0.40355456
3	0x3f4cfcd9	0.80073315
4	0x3f4cd4fb	0.8001248
5	0x3f8e32fe	1.1109312
6	0x3f2d5c5b	0.6771905
7	0x3f7f18cd	0.9964722

l2.weight f4 [8, 8]
0	0xbf203dca	-0.6259428
1	0x3f157661	0.58383757
2	0xbd529f02	-0.051421173
3	0x3f4d47e6	0.80187833
4	0xbfa1253e	-1.258949
5	0x3e8530bf	0.26013753
6	0x3e26d562	0.16292337
7	0x3ef6a128	0.48169827
8	0x3fdfb647	1.7477502
9	0x3f27af9a	0.6550232
10	0xbf167214	-0.5876782
11	0x3f39b13c	0.72536063
12	0x3ead6239	0.33864
13	0x3e831f98	0.25610042
14	0xbf9b83a2	-1.2149546
15	0x3f5ddbeb	0.86663693
16	0xbfbf4fb5	-1.49462
17	0x3df9d7dd	0.12199376
18	0x3f6c7b64	0.9237578
19	0x3f7e065f	0.9922847
20	0x3fe986d1	1.8244268
21	0x40048a2a	2.0709329
22	0xbfb8fac4	-1.4451528
23	0x3fab17e4	1.3366666
24	0x3e70f822	0.23532155
25	0xbe6d4e3f	-0.2317438
26	0xbea6d84c	-0.32586896
27	0xbc9e63a0	-0.019334614
28	0x3d9c6ac5	0.07637552
29	0xbeb0b023	-0.34509382
30	0x3df547be	0.11976574
31	0xbecc1785	-0.39861694
32	0xbfdd2485	-1.727677
33	0x3ff46f2d	1.9096428
34	0xbfd27783	-1.6442722
35	0xbe313343	-0.17304711
36	0xbfc026d4	-1.5011849
37	0x3f51d586	0.81966436
38	0x3feee552	1.8663733
39	0x3f294b86	0.66130865
40	0xbf43c920	-0.7647877
41	0xbfdc8ac5	-1.7229849
42	0x3ffabda5	1.9589125
43	0x3fb241f6	1.392638
44	0x3f330238	0.6992526
45	0x3f4c029b	0.79691476
46	0x3fe4b0b1	1.7866422
47	0x3f9fb883	1.2478184
48	0x3fd9d600	1.7018433
49	0x3ed4defc	0.41576374
50	0xbf150868	-0.5821595
51	0x3f8bb37c	1.0914149
52	0xc0009206	-2.0089126
53	0x3e8a0359	0.2695568
54	0x3d853558	0.06504315
55	0x3ed6969b	0.41911778
56	0x3fe60ee6	1.7973297
57	0x3fb07fa8	1.3788958
58	0x3f83416a	1.0254338
59	0xbf9c376a	-1.2204411
60	0x3ff3b52b	1.9039663
61	0x3f317bc3	0.6932947
62	0x3fb1830f	1.3868121
63	0xbf984f59	-1.1899215

l2.bias f4 [8]
0	0xbed92825	-0.4241344
1	0x3f52173f	0.8206672
2	0x3f32a0bd	0.6977652
3	0xbe68f6a0	-0.2275033
4	0x3f57962d	0.84213525
5	0x3f3175ba	0.6932026
6	0x3ee74e39	0.45176867
7	0x3dacf39e	0.08444904

l3.weight f4 [24, 8]
0	0xc006dab9	-2.1070998
1	0xc0985d84	-4.7614155
2	0xc06b68dd	-3.6782753
3	0xbd3f8f78	-0.04676768
4	0xbdb8131a	-0.08988018
5	0x3fa275fb	1.2692255
6	0x3f8b2b1b	1.087253
7	0xbf4dfae4	-0.80460954
8	0x3fde60aa	1.737325
9	0xc055d9fe	-3.3414302
10	0x3c36fe37	0.011169008
11	0xbe4d7788	-0.20065129
12	0xbe9355ee	-0.28776497
13	0xbf49de04	-0.78854394
14	0xbf897af6	-1.074065
15	0xbe8dbda2	-0.2768374
16	0xc06b81dd	-3.6798012
17	0x3eee51d7	0.46546814
18	0xbfafa3b7	-1.3721837
19	0xbec6a2e9	-0.38796166
20	0xc0ecafaa	-7.3964434
21	0xbf58d4e6	-0.8469986
22	0x3fa9dfc0	1.3271408
23	0xbcb6b5de	-0.022303518
24	0xc082632e	-4.074607
25	0xbf36b3de	-0.71368206
26	0x3f5b0d6b	0.8556735
27	0xbe1d1530	-0.15340114
28	0xbffd66f5	-1.9797045
29	0xc0075d53	-2.115071
30	0xc0a4502c	-5.1347866
31	0x3e854d98	0.26035762
32	0xbffec9d2	-1.9905341
33	0xbd97583b	-0.073898755
34	0xbfab4d18	-1.3382902
35	0xbe472990	-0.19449449
36	0xc030bbbf	-2.761459
37	0xc069bdd4	-3.6522112
38	0xbf24eb66	-0.6442169
39	0x3f45252f	0.7700986
40	0xbcce6495	-0.025194446
41	0xbf7cce57	-0.9875235
42	0xbf301239	-0.68777806
43	0xbe98a1ba	-0.29810888
44	0x3ed4c899	0.41559294
45	0xbebe7ddd	-0.372054
46	0x3f39a138	0.72511625
47	0xbf48b832	-0.7840606
48	0x3d046b43	0.032328855
49	0xbfb5cc77	-1.4203023
50	0xbde0dbc9	-0.10979421
51	0xbd921328	-0.0713256
52	0x3f148b0f	0.58024687
53	0x3ef2e2cd	0.4743866
54	0x3ec5f4fd	0.38663474
55	0xbfeb594e	-1.8386629
56	0xbf8deef0	-1.1088543
57	0xbff7ae91	-1.9350148
58	0xbff252f5	-1.8931566
59	0xbea49ea5	-0.32152286
60	0xbff66a3c	-1.925117
61	0xbf274e59	-0.65353924
62	0xc0836f83	-4.1073623
63	0x3f924fcd	1.1430603
64	0xbfdcb7b4	-1.7243562
65	0xc0ac5fdf	-5.386703
66	0xbf8a2de0	-1.079525
67	0xbd7118f8	-0.058861703
68	0xbfb44316	-1.4082973
69	0x3f8ec324	1.1153302
70	0xc05e8d7a	-3.477385
71	0xbeae061b	-0.33989033
72	0x3ffbece1	1.9681665
73	0xbf733e01	-0.95016485
74	0x3f34f7c2	0.7069055
75	0xbe4e4a78	-0.20145595
76	0x3ee2575f	0.44207284
77	0xc08399e4	-4.1125355
78	0xbf39c5d0	-0.7256746
79	0xbfc0ee71	-1.5072767
80	0xc0f9b66c	-7.8035183
81	0xc0072e3b	-2.1121967
82	0x3efb5efc	0.49095905
83	0x3e59349e	0.21211478
84	0xc0d9bce8	-6.80431
85	0x3f33f028	0.70288324
86	0xc0689875	-3.6343052
87	0xbdd735a8	-0.10508281
88	0x403a8122	2.9141316
89	0xbf5ff755	-0.87486774
90	0x3e79eae2	0.24406007
91	0xbe37ad54	-0.17937213
92	0xc091d97d	-4.557799
93	0x3eef295b	0.4671124
94	0x3f608a55	0.8771108
95	0xc03dcbff	-2.965576
96	0xc09de84e	-4.9346075
97	0x3eb740fb	0.35791764
98	0x3ea63dd4	0.32469046
99	0xbdf41990	-0.11918938
100	0xbe953452	-0.2914148
101	0xbeb3e6d3	-0.35137042
102	0x3f18f35e	0.5974635
103	0xbf9db002	-1.2319338
104	0x3e35a25d	0.17737718
105	0xc00a6b56	-2.1628013
106	0x3fddd3d4	1.733027
107	0x3e1f2ed4	0.15545207
108	0xbffb0f8f	-1.9614123
109	0x3f50853f	0.8145332
110	0xc0899f4d	-4.300696
111	0xc043d8af	-3.0601003
112	0xc0cd83a1	-6.422318
113	0xbf8faa83	-1.1223911
114	0xc08050b0	-4.0098495
115	0xbddb1678	-0.10697645
116	0xbf4b5e34	-0.7944062
117	0xbeb674df	-0.3563604
118	0x3ebda506	0.37039965
119	0x3f007c8a	0.5019003
120	0xbfd7e0ab	-1.6865438
121	0xc017737f	-2.3664243
122	0xc0071209	-2.1104758
123	0x3d9d122a	0.0766948
124	0x3f4248da	0.7589241
125	0xc03bf9d3	-2.937123
126	0xbf225d3a	-0.634235
127	0x3ed8b3a7	0.42324564
128	0x3fcc2190	1.5947742
129	0x3f2d4086	0.6767658
130	0x3f004d42	0.50117886
131	0xbdca0e8e	-0.09866057
132	0xbeeacaf8	-0.45857978
133	0xbfd28de4	-1.6449552
134	0x3ef44765	0.4771072
135	0xc0cab049	-6.334019
136	0xbea60d60	-0.3243208
137	0xbfa3dc95	-1.2801691
138	0xbf558771	-0.8340979
139	0x3e64ee25	0.2235647
140	0xbf575a28	-0.8412194
141	0xbf7d9f08	-0.9907079
142	0xbfb9d63d	-1.4518505
143	0xbfaa43a0	-1.3301888
144	0xc0324157	-2.785238
145	0x3f95d9c3	1.1707081
146	0xc038c43c	-2.8869772
147	0xbed70c3e	-0.42001528
148	0xbfce0ed4	-1.6098275
149	0xc03d6ada	-2.9596467
150	0x3fbbf2ef	1.4683512
151	0xbf2f90cd	-0.68580323
152	0xc09a6535	-4.8248544
153	0xbed85690	-0.42253542
154	0x3b86f874	0.0041189734
155	0xbe92cc18	-0.28671336
156	0xbe1ad04c	-0.15118521
157	0x3e77ac51	0.24186827
158	0x3d478265	0.04870834
159	0xbf3fe97a	-0.7496563
160	0xc0905b62	-4.511155
161	0xc0a070ab	-5.0137534
162	0xbfb7daa6	-1.4363601
163	0xbe05007c	-0.12988466
164	0x3f71ac2c	0.9440334
165	0xbed893b8	-0.423002
166	0xc03af558	-2.9212246
167	0x3e75b3a2	0.23994306
168	0x3fb6689e	1.4250677
169	0xc0c47677	-6.139461
170	0xc00ecd31	-2.231274
171	0xbc0ff134	-0.008785535
172	0x3fb50653	1.4142555
173	0xbf06d9b9	-0.5267597
174	0xbd0ecc80	-0.034862995
175	0xbf0cc0d5	-0.5498174
176	0xc05212d5	-3.2823994
177	0xc02f4d57	-2.7390954
178	0x3eb2d816	0.34930485
179	0x3df39f8a	0.11895664
180	0x3f0f3c95	0.55951816
181	0xc024cc60	-2.574974
182	0xc000e444	-2.0139322
183	0xbd69411f	-0.05694687
184	0xc01bc7e4	-2.4340754
185	0xbf729866	-0.9476379
186	0xbe1cde96	-0.15319285
187	0x3e439273	0.19098835
188	0xbe38bf2b	-0.18041675
189	0xc05c25a2	-3.439797
190	0x3f2ed121	0.68287855
191	0xbe6a1691	-0.22860171

l3.bias f4 [24]
0	0x3ebf11e6	0.37318343
1	0xbfed9c73	-1.856337
2	0x3c57f99e	0.013182072
3	0xbe111c15	-0.14170869
4	0x3e316dff	0.17327116
5	0xbf04956a	-0.5179049
6	0xbf11805b	-0.5683648
7	0xbdabf396	-0.0839607
8	0xbf08e2ef	-0.53471273
9	0xbeae6d7e	-0.3406791
10	0x3eec7602	0.46183783
11	0xbfb4dd4a	-1.4130032
12	0x3eb4f661	0.35344222
13	0xbf37a830	-0.7174101
14	0x3e61bc4c	0.22044486
15	0xbf711d45	-0.94185287
16	0x3d890e71	0.066922076
17	0xbe711961	-0.23544838
18	0x3f4bf17b	0.79665345
19	0x3f1ca7f0	0.6119375
20	0xbf133cf1	-0.57514864
21	0x3eb5cf8d	0.3550991
22	0xbcac59de	-0.021038946
23	0xbf4a9a83	-0.79142016
